…
2_blk1_1_e300_b32_quant_M4_E2_lr0.001_cosine_0.1_1_0.1_L2_Size1.5_ENC_convnext_5,4,3,2,2_DEC_pshuffel_5,4,3,2,2_gelu1_1', init_method='tcp://127.0.0.1:12188', ngpus_per_node=1, metric_names=['pred_seen_psnr', 'pred_seen_ssim', 'pred_unseen_psnr', 'pred_unseen_ssim', 'quant_seen_psnr', 'quant_seen_ssim', 'quant_unseen_psnr', 'quant_unseen_ssim'], final_size=460800, full_data_length=120, val_ind_list=[], dump_vis=True, fc_dim=78, encoder_param=0.277488, decoder_param=1.47604, total_param=1.4914)
 HNeRV(
  (encoder): ConvNeXt(
    (downsample_layers): ModuleList(
      (0): Sequential(
        (0): Conv2d(3, 64, kernel_size=(5, 5), stride=(5, 5))
        (1): LayerNorm()
      )
      (1): Sequential(
        (0): LayerNorm()
        (1): Conv2d(64, 64, kernel_size=(4, 4), stride=(4, 4))
      )
      (2): Sequential(
        (0): LayerNorm()
        (1): Conv2d(64, 64, kernel_size=(3, 3), stride=(3, 3))
      )
      (3): Sequential(
        (0): LayerNorm()
        (1): Conv2d(64, 64, kernel_size=(2, 2), stride=(2, 2))
      )
      (4): Sequential(
        (0): LayerNorm()
        (1): Conv2d(64, 16, kernel_size=(2, 2), stride=(2, 2))
      )
    )
    (stages): ModuleList(
      (0): Sequential(
        (0): Block(
          (dwconv): Conv2d(64, 64, kernel_size=(7, 7), stride=(1, 1), padding=(3, 3), groups=64)
          (norm): LayerNorm()
          (pwconv1): Linear(in_features=64, out_features=256, bias=True)
          (act): GELU()
          (pwconv2): Linear(in_features=256, out_features=64, bias=True)
          (drop_path): Identity()
        )
      )
      (1): Sequential(
        (0): Block(
          (dwconv): Conv2d(64, 64, kernel_size=(7, 7), stride=(1, 1), padding=(3, 3), groups=64)
          (norm): LayerNorm()
          (pwconv1): Linear(in_features=64, out_features=256, bias=True)
          (act): GELU()
          (pwconv2): Linear(in_features=256, out_features=64, bias=True)
          (drop_path): Identity()
        )
      )
      (2): Sequential(
        (0): Block(
          (dwconv): Conv2d(64, 64, kernel_size=(7, 7), stride=(1, 1), padding=(3, 3), groups=64)
          (norm): LayerNorm()
          (pwconv1): Linear(in_features=64, out_features=256, bias=True)
          (act): GELU()
          (pwconv2): Linear(in_features=256, out_features=64, bias=True)
          (drop_path): Identity()
        )
      )
      (3): Sequential(
        (0): Block(
          (dwconv): Conv2d(64, 64, kernel_size=(7, 7), stride=(1, 1), padding=(3, 3), groups=64)
          (norm): LayerNorm()
          (pwconv1): Linear(in_features=64, out_features=256, bias=True)
          (act): GELU()
          (pwconv2): Linear(in_features=256, out_features=64, bias=True)
          (drop_path): Identity()
        )
      )
      (4): Sequential(
        (0): Block(
          (dwconv): Conv2d(16, 16, kernel_size=(7, 7), stride=(1, 1), padding=(3, 3), groups=16)
          (norm): LayerNorm()
          (pwconv1): Linear(in_features=16, out_features=64, bias=True)
          (act): GELU()
          (pwconv2): Linear(in_features=64, out_features=16, bias=True)
          (drop_path): Identity()
        )
      )
    )
  )
  (decoder): ModuleList(
    (0): NeRVBlock(
      (conv): DownConv(
        (downconv): Conv2d(16, 78, kernel_size=(1, 1), stride=(1, 1))
      )
      (norm): Identity()
      (act): GELU()
    )
    (1): NeRVBlock(
      (conv): UpConv(
        (upconv): Sequential(
          (0): Conv2d(78, 1625, kernel_size=(1, 1), stride=(1, 1))
          (1): PixelShuffle(upscale_factor=5)
        )
      )
      (norm): Identity()
      (act): GELU()
    )
    (2): NeRVBlock(
      (conv): UpConv(
        (upconv): Sequential(
          (0): Conv2d(65, 864, kernel_size=(3, 3), stride=(1, 1), padding=(1, 1))
          (1): PixelShuffle(upscale_factor=4)
        )
      )
      (norm): Identity()
      (act): GELU()
    )
    (3): NeRVBlock(
      (conv): UpConv(
        (upconv): Sequential(
          (0): Conv2d(54, 405, kernel_size=(5, 5), stride=(1, 1), padding=(2, 2))
          (1): PixelShuffle(upscale_factor=3)
        )
      )
      (norm): Identity()
      (act): GELU()
    )
    (4): NeRVBlock(
      (conv): UpConv(
        (upconv): Sequential(
          (0): Conv2d(45, 152, kernel_size=(5, 5), stride=(1, 1), padding=(2, 2))
          (1): PixelShuffle(upscale_factor=2)
        )
      )
      (norm): Identity()
      (act): GELU()
    )
    (5): NeRVBlock(
      (conv): UpConv(
        (upconv): Sequential(
          (0): Conv2d(38, 128, kernel_size=(5, 5), stride=(1, 1), padding=(2, 2))
          (1): PixelShuffle(upscale_factor=2)
        )
      )
      (norm): Identity()
      (act): GELU()
    )
  )
  (head_layer): Conv2d(32, 3, kernel_size=(3, 3), stride=(1, 1), padding=(1, 1))
)
 Encoder_0.28M_Decoder_1.48M_Total_1.49M
Use GPU: None for training
=> No resume checkpoint found at 'output/honeybee_sbatch_test_out_4_2/honeybee_sbatch_test_4_2/1_1_1__Dim64_16_FC9_16_KS0_1_5_RED1.2_low12_blk1_1_e300_b32_quant_M4_E2_lr0.001_cosine_0.1_1_0.1_L2_Size1.5_ENC_convnext_5,4,3,2,2_DEC_pshuffel_5,4,3,2,2_gelu1_1/model_latest.pth'
…
